Python/gcn_model.pth (torch, 45600 bytes, 4 tensors)

conv1.bias f4 [64]
00000000: 3096 be3d d508 343e fbea 97be bc0e 04bf
00000010: 5565 e03d 88e9 a03e e607 a23e e8ef 103e
00000020: b21e 84bd 1c6f babe e1a3 823e ca31 1e3e
00000030: 5cad d3bc 2545 853e cdf5 c43e 9dc5 a2bd
00000040: dd8e 133e 3160 abbc ef94 0dbe 1082 5c3e
00000050: 68b3 c53d 576b b9bb abb7 253e a930 473d
00000060: 671d 8cbb 60ee b53e 3da3 47be df8f 2c3e
00000070: cfb2 0fbd 27c0 f5bc 6855 5cbd 1b56 e3bc
00000080: 3833 1a3d 1d2c 363e b0b1 acbb 3b94 903b
00000090: 1eb6 0b3d 1d06 213e b16d 80be 8215 583e
000000a0: a88b 3c3e 1002 d03d c485 9d3e 8288 3c3d
000000b0: f2df 4bbe 627c 74bd 6172 b83e 82e8 563e
000000c0: a2db aebc 55df a53e 76c9 a13d 73f0 e43d
000000d0: 27e5 183d 5b13 2b3d a0e2 4e3e 0c4b 31be
000000e0: f608 aa3d 3925 f8bc dbec 203e ecd1 fa3d
000000f0: db10 703e 7b7c 2f3e be43 593e d504 63bd
0.0930599 0.17581494 -0.29671463 -0.5158498 0.109568276 0.3142817 0.3164665 0.14154017
-0.06451167 -0.36412895 0.25515655 0.1544868 -0.0258395 0.26029316 0.3846878 -0.07947848
0.14409967 -0.020919891 -0.13826345 0.2153399 0.0965336 -0.005658548 0.16183345 0.04863039
-0.004275966 0.35533428 -0.19495864 0.16851757 -0.035082635 -0.029998852 -0.053792387 -0.02775102
0.037646502 0.17790265 -0.0052702054 0.0044122017 0.034109227 0.15724988 -0.25083688 0.21101955
0.1841265 0.101566434 0.30766118 0.04602862 -0.19909647 -0.059688933 0.36024764 0.20987132
-0.021344963 0.3239695 0.07899754 0.111786745 0.03732791 0.041766506 0.20203638 -0.17313784
0.083024904 -0.030291187 0.15715353 0.12247071 0.2344393 0.1713733 0.21217248 -0.05542453

conv1.lin.weight f4 [64, 128]
00000000: 2204 c43d 5066 1a3e 226c 6cbd eaff 9c3d
00000010: 3054 863e 6a8a bd3d 4716 2e3e ace3 3f3e
00000020: 2717 54bd 9560 a33d 3c41 af3e f78d ecbd
00000030: dc38 463e a3b3 45be bee7 07bd 7684 98be
00000040: c20c 55be c1b7 42bc a5cc c6be 7b9e 6a3d
00000050: 3dcd 81be 8426 3cbd b1d2 643e e867 30be
00000060: cf7d 58be 7ad9 17be c7bd 36bc 3597 f43d
00000070: bdd0 d2be fa26 12be 6b5f cb3b 85f9 7c3e
00000080: eb15 a9be cc22 11be a228 c13c 44ce b4bc
00000090: 1b4b 23bd 703c 9d3e ffe4 ab3e e768 5abe
000000a0: 7ced d33d 944f e53d f395 8fbe a6bc 983b
000000b0: cfbb 6cbd def1 4fbe fad8 103e 36c6 c4bc
000000c0: 8bd3 153e 358a 7fbe bf6d ad3e 6dc3 733e
000000d0: 2df7 aabe 2bd0 b13d 5b1e b93e d643 8fbe
000000e0: 6961 933e 063e 9dbe 5a03 5cbe 2e84 59bd
000000f0: f566 0d3d 0e0c 2fbd 1214 cc3d d95f 443e
00000100: ebba 84be 2c7b 6abc b316 8a3c 45b3 2e3e
00000110: 0c3d 15be e2b7 3cbd 4458 ff3e bb9b 42be
00000120: cd1f 783d 05f4 42be f864 05be fcbc b63d
00000130: 2145 5bbe 1da1 00be 9580 fc3d 3abe dcbc
00000140: 1bba 463d 2fe4 473e 70ea 103e 86b8 6d3d
00000150: 7d6d 1e3e 8275 d23d ce7e bcbe f7fa f73d
00000160: 9674 19be 4c0c ad3c 16ff 9dbe df8a 093e
00000170: f499 a8bd 5111 8ebe 3a9b 4e3d 32ab a2b9
00000180: 008f 843e 1ea8 f53e 11ce 1b3d 4650 1a3e
00000190: 9679 00bd 7ca5 063d c27d 5fbe a3b0 c4bd
000001a0: f064 a23e c3b6 2e3e e129 673e e827 5bbe
000001b0: fd71 8d3e 9cbc 2e3d 5b1f fc3d 6fbe 043e
000001c0: dfe8 f03d 4398 423e 0036 bb3e ac4b 693e
000001d0: 1a7d 963e da68 a7bd 56cd 82bd 0b53 73bd
000001e0: fed3 dfbe 9725 05bd 676d 23be 27eb 9f3e
000001f0: 6c44 8b3e 24e2 bd3e 0107 953e c18c 02be
00000200: 8efd 71be fd93 5d3e 740e 23be 25d7 6abc
00000210: 3514 11be d9e7 13be ecf4 1cbe 8ff6 ba3d
00000220: 0b59 16bc 8b0f 1cbe b028 96be 114b a6bd
00000230: fe61 7e3e e993 e23d 3258 91be e664 7d3c
00000240: 5741 a03e 03ac cc3d 2c7c 233e 1ebd 213d
00000250: d764 d2bd b709 023f 4dad 5fbe f5e2 6bbd
00000260: 1e26 a03e 5407 963d b462 b0bd 0438 81be
00000270: 852a 8a3d 90b3 b03e dc33 883c ba65 87bc
00000280: 90ce d83c 58e7 e3bd fef9 63be 3fec 40bb
00000290: aaa8 b4be 8aa9 bbbe b4fd 48be 546a c23e
000002a0: 51bf 80bd bf16 50be 6e1b 8bbe 8254 7dbe
000002b0: 56d6 813d 8773 803d e199 4e3e 50cb 1abe
000002c0: 486e d238 735f 23be 5a07 733d 272e 223e
000002d0: a239 b4bd fc04 143e b479 e9bd 4058 ccbe
000002e0: 138c a53e 979a 2f3f fbc8 353e b013 b2be
000002f0: fd02 05be 5e99 453e d1f7 3e3e 4463 68be
00000300: edb9 bdbd 4db4 76bd 1439 cebd 3919 31be
00000310: 73a2 f73d 51e3 15bb 6190 0c3e c5e5 2c3e
00000320: 77b8 09be 9cf2 51be c383 03bc 3840 59be
00000330: 2cfb bcbe 9422 10be be64 b7bd 42b3 8abe
00000340: 4922 33be 3b76 5bbe 61d5 ccbe b2c2 c1bd
00000350: 6605 96be e454 9ebd 62a8 be3c 786a 5fbe
00000360: f094 8dbd 9d24 ccbd 92d8 cbbc 8ff1 d63c
00000370: 32da 51be 9a19 47bd c46c 8ebe 3783 f13d
00000380: 5605 cebe dc2f 5dbe c19d 43bd ba92 ccbd
00000390: 4acb 083e 6277 f53d ba69 bfbd 999f 9e3d
000003a0: 7fb2 8e3d 4cd5 033c 8eba a73c 5cd8 243e
000003b0: 7df6 433d 9c88 833e c1ce c8bc 3679 a2be
000003c0: f935 bc3e da43 373e b140 b23d 293b 88be
000003d0: 4bd9 20bd 9128 bc3d 41a4 2e3e 331d 16bd
000003e0: 4782 31bd f341 a73e 0e35 bf3d 91ad dd3c
000003f0: eece 8fbe 40be 94bd 276c 573e 8340 8f3e
0.09571101 0.15078092 -0.05772031 0.07665999 0.26236105 0.09254916 0.17000686 0.18739194
-0.051779892 0.07977406 0.34229457 -0.11550515 0.19357628 -0.19306807 -0.03317999 -0.2978856
-0.20805648 -0.011884631 -0.38828006 0.057280045 -0.25351897 -0.04593517 0.22345997 -0.17227137
-0.21141742 -0.14829054 -0.011153645 0.11942903 -0.4117488 -0.14272681 0.006206443 0.24704559
-0.33024535 -0.1417343 0.023578946 -0.022071011 -0.039866548 0.30710173 0.33573148 -0.2132908
0.10348031 0.11196819 -0.2804409 0.0046611605 -0.057796296 -0.20307109 0.1414527 -0.024020296
0.14631478 -0.24955066 0.33872792 0.23805018 -0.33391705 0.08682283 0.36155972 -0.27981442
0.28785256 -0.30711383 -0.21485654 -0.053104572 0.034522016 -0.042736106 0.099647656 0.19177188
-0.25923857 -0.014311593 0.016856527 0.17060573 -0.14574069 -0.0460738 0.4987203 -0.19004719
0.060577203 -0.19038399 -0.13026798 0.08922765 -0.2141309 -0.1256146 0.123292126 -0.026946176
0.048517328 0.19520639 0.14151931 0.058037303 0.15471454 0.10276319 -0.36815494 0.121084146
-0.1498588 0.021124028 -0.30858678 0.13431881 -0.08232489 -0.27747586 0.050441004 -0.00031026598
0.2589035 0.47979826 0.038038317 0.15069684 -0.031365953 0.032872662 -0.21825317 -0.09604003
0.31717634 0.17061906 0.2257457 -0.21401942 0.2762603 0.04266034 0.12310668 0.1296327
0.11763167 0.19003396 0.36564636 0.22782773 0.2939232 -0.08174296 -0.06386821 -0.059405368
-0.43716425 -0.03250655 -0.15959702 0.31234095 0.2720064 0.37086594 0.29106906 -0.12749006
-0.2363188 0.21638484 -0.15923482 -0.014333521 -0.14167865 -0.14443912 -0.15327805 0.091290586
-0.009176503 -0.15240304 -0.29327917 -0.081197865 0.24842069 0.11063368 -0.283876 0.015465951
0.3129985 0.09993746 0.15965337 0.039486997 -0.1027314 0.50796074 -0.21843453 -0.05758949
0.3127908 0.073256165 -0.08612576 -0.2523805 0.06746391 0.34511995 0.016626291 -0.016528
0.026465684 -0.1112811 -0.22263333 -0.0029437689 -0.3528493 -0.36652786 -0.1962803 0.37971747
-0.06286491 -0.20321177 -0.27169365 -0.24739268 0.063397095 0.06272035 0.20175888 -0.1511662
0.00010034122 -0.1595438 0.059333183 0.15837918 -0.08800055 0.14455026 -0.11400166 -0.3991108
0.3233343 0.6859526 0.17752449 -0.34780645 -0.12989421 0.19296786 0.18649222 -0.22694117
-0.09263978 -0.060230542 -0.100694805 -0.17294778 0.120915316 -0.0022871087 0.13726951 0.16884525
-0.13449274 -0.20502704 -0.00802702 -0.21215904 -0.3691038 -0.1407569 -0.08954762 -0.27089888
-0.17493547 -0.2143182 -0.40006545 -0.09460963 -0.29300994 -0.07731035 0.02327365 -0.21817958
-0.06913173 -0.09967921 -0.024883542 0.026238231 -0.20493391 -0.0486084 -0.27817357 0.11792605
-0.40238446 -0.21600288 -0.047757868 -0.09988923 0.13358799 0.11985661 -0.093463376 0.077452846
0.06967639 0.008046459 0.020474698 0.1609816 0.04784249 0.25690162 -0.02451265 -0.31733102
0.36759928 0.17896977 0.08703745 -0.26607636 -0.039269727 0.09187425 0.17054845 -0.03664894
-0.043337133 0.32667503 0.09336291 0.027060302 -0.28087562 -0.0726285 0.2103735 0.27978906

conv2.bias f4 [40]
00000000: 7cf7 c1be e4f7 03bf ffc4 11be 400a d1be
00000010: 14bd 923d 5a29 3c3e 9792 8dbe 1c03 c6be
00000020: 0476 00bc dc5c cabe 06f3 83bd 00b7 21bf
00000030: 9d52 62be 78a7 5ebf 445d d1be 9f07 93be
00000040: 0e2b 293f c80d 44bf fcee 8cbe b8ed 11bf
00000050: f232 bcbe 41ea 2ebe 65bb 1bbf e5f7 7bbe
00000060: 921d 3b3f 28b5 f7be 711a 29be c225 59bd
00000070: a133 3c3e cd86 0ebf 8736 203f 0a0d 56bf
00000080: 7d1d a2be 1411 68be 7f46 56bd 13be c6be
00000090: fdca c9bd 36db 3fbf c09b 96be 7ab0 d8be
-0.37884128 -0.51550126 -0.14235304 -0.40828133 0.0716497 0.1837515 -0.27650902 -0.38674247
-0.007840637 -0.3952397 -0.064428374 -0.6316986 -0.22101827 -0.8697429 -0.4089147 -0.28716752
0.6608132 -0.7658353 -0.2752608 -0.57003355 -0.36757618 -0.17081548 -0.60832816 -0.24606283
0.73091996 -0.483804 -0.16513993 -0.053014524 0.1837907 -0.5567444 0.625832 -0.83613646
-0.31663123 -0.22662765 -0.052313324 -0.3881689 -0.0985317 -0.74943864 -0.29415703 -0.4232214

conv2.lin.weight f4 [40, 64]
00000000: 6be7 33be df90 90bd 0d76 9e3e 9558 cbbe
00000010: 70c8 9b3d 07a7 a7be bff2 f2bd 9a00 6d3d
00000020: e9dc 2cbe 17f0 80bc 0b00 78be 272b 61be
00000030: 8afb 5838 64e6 d6be 1d75 45be fd8b 533d
00000040: 901f db3d 91f1 6639 6519 d03e b7c2 dbbd
00000050: 3947 613e ee93 2eb8 3f37 3e3d 8422 b0bd
00000060: 2e23 95bd e834 72be 4673 863e 1db8 923d
00000070: baea 8037 53cd ba38 0b09 8cbe d9f8 1d39
00000080: e4b1 26be 286a 52be fa75 8a38 b2b2 d6bd
00000090: 471b fa3b 3957 e8bd 5bd4 2bbd e4a4 3a3e
000000a0: ed5f 7ebd 2193 92be 5978 e13e fb19 a2be
000000b0: 6466 bd3e 4b52 10ba 9f31 f4bd 2ab2 b63d
000000c0: e676 10b9 4968 0cbe 4da7 183e b831 ecbd
000000d0: a277 133d 3308 14be aa5b 183d 1d0a afbc
000000e0: 31ba 883d 7600 b03e 5ba4 73be 679f 2bbe
000000f0: 97c4 62be b688 e8bd e57e 05bc ff19 acbb
00000100: dccd 143e 8f2a 9abe 178e 41bf 7b8c 07bf
00000110: 44cc 56be 8682 a13e 202b 20be 7195 dfbe
00000120: 0454 bbbe 3f95 d53e 9faa 163f f180 3cbe
00000130: 0472 0f3c e357 fdbc d93d f7bd 5197 f43d
00000140: 53c0 493e 0979 3b3a 8af4 21bf 972c 333f
00000150: 5940 aebd e889 fab8 2d14 4a3e 49a0 973c
00000160: b47e febe a573 9cbe e670 3abe b805 12bf
00000170: 2065 ba38 737a e53b 8f1a 04be a8ee db3b
00000180: 6e94 63bd 43c8 08be 0535 01b9 adbb 463e
00000190: da83 273e 4c04 d4be cb89 633e 2b17 923e
000001a0: 660d e93d 9099 95be 4232 e6be bbe2 fcbb
000001b0: 6beb 773e 5d8d 58ba 1370 e73e 61ad 9abd
000001c0: bb99 b939 9dc9 313f 9c2d 483e 9de8 e9be
000001d0: 4546 1d3f fd45 523e 7e15 e0bd e5ff d7be
000001e0: d6a2 b8be 4c0b f33e 5589 5c3e a278 09bf
000001f0: 6e5d 323d c3ab 82be f223 20be db0d 43be
00000200: 243e 133e 2157 fd3e 2728 d7bd b1bb 4d3e
00000210: d1f7 1b3f a17b 97be f4b2 b93e d173 a7be
00000220: 6ff0 663f 76b7 083f b3b0 4abd ae8e 43bd
00000230: 0ea2 8f3a fb54 863e b8c9 f7bd ce07 64be
00000240: 128d a8be a6f9 80b9 6315 32bd 36ba 20bf
00000250: c38e 683e 6575 01b9 692d c1be cbcf 98bd
00000260: 84ab 683f 4636 a9be 6fea 4a3d 9c98 b63e
00000270: e285 8938 c5e6 d73b 3743 913e a975 ea3a
00000280: 067a abbe b826 593e ab6f 0fb9 9271 683e
00000290: d80c 55bd 2b7f eabd e58e d6be 5434 64be
000002a0: 813b c7be fcd6 9fbd 3399 a03e 21d0 a53c
000002b0: 61b6 93be d7f4 3a3d 286c 493e 12c7 33bd
000002c0: 6cc9 0ab9 932b 38bf 3340 9bbe 7230 b93e
000002d0: 6bf0 b7be a647 febd 3eed a7be 009e cd3d
000002e0: a716 a83e 3d68 1abf 870c d5bc add6 833e
000002f0: 4b70 54bd 7827 413e 24dd 523e b31f 45be
00000300: fe3d ed3c 5e43 88be 3e2c 18bd c4b4 793e
00000310: 8640 a43c 7f33 5a3e 7497 8dbe a36e 54bf
00000320: 23c3 eabc 3ad3 9abe 64d1 58be 4f24 9c3d
00000330: 478c 86bc 31ad 393e 45c0 08be 67c4 93be
00000340: b506 883e 9290 bcb9 5d0c d63d 0603 c5be
00000350: a9d1 e1be 0af1 28b8 2c1b b8be 3d8f 923d
00000360: acc6 77be 9e5d 153b f8be 873d ed23 99be
00000370: b4d9 8a39 ffed b0bc 7064 203f 6ad2 60bc
00000380: 4b72 133f 710e 1d3e 8641 c7b8 b154 36be
00000390: f644 493c a495 063d 4e97 113f 3d84 9cbd
000003a0: 840b f0be 586d b53e 6a71 40bd f60b 003e
000003b0: 7d4c 5a3e 0f91 1fbc f871 cf3e 5625 ab3a
000003c0: 46f6 29b9 f1b0 223f 800c 8bbe 4fc0 f0be
000003d0: 4960 d73d 9573 0f3f e0cb 7cbe c650 f2be
000003e0: 4499 883e f8e5 b3be 3dee aebd 2097 14bd
000003f0: 9ff7 ef3e db80 463d 3987 433e 28a4 193e
-0.17568748 -0.07058882 0.3094944 -0.3971602 0.0760659 -0.3274462 -0.118627064 0.0578619
-0.16881146 -0.015739484 -0.24218766 -0.21989118 5.1732677e-05 -0.4197265 -0.19282956 0.051647175
0.106993794 0.000220245 0.40644374 -0.10730498 0.21999826 -4.1622603e-05 0.046439406 -0.08600333
-0.072821006 -0.23652995 0.26259822 0.07164023 1.5368092e-05 8.907416e-05 -0.2735065 0.0001506539
-0.16278797 -0.20548308 6.6023276e-05 -0.10483302 0.0076326462 -0.113447614 -0.041950565 0.18226963
-0.0621032 -0.28627875 0.4403713 -0.31660447 0.3699218 -0.00055054267 -0.11923527 0.08920701
-0.00013777203 -0.13711657 0.1490757 -0.115329206 0.036002763 -0.14456253 0.037196793 -0.021367127
0.06676138 0.34375352 -0.23793165 -0.16760026 -0.22145306 -0.113542005 -0.00814793 -0.0052521224
0.14531654 -0.30110595 -0.75607437 -0.5294873 -0.20976359 0.31544894 -0.15641451 -0.43668702
-0.36587536 0.41715428 0.588541 -0.18408562 0.008755211 -0.030925697 -0.120723434 0.11942924
0.19702272 0.00071515195 -0.6326376 0.69989914 -0.08508367 -0.00011946616 0.19734259 0.018509047
-0.49706042 -0.3055698 -0.1820713 -0.57039976 8.888007e-05 0.0070031225 -0.12900756 0.0067117997
-0.055561475 -0.13357644 -0.0001232215 0.1940753 0.16358891 -0.41409528 0.22220533 0.285333
0.11379509 -0.2921872 -0.4496022 -0.007717458 0.24210899 -0.0008260811 0.45202693 -0.07552601
0.00035400488 0.6944826 0.19548649 -0.45685282 0.6143535 0.20534511 -0.10941599 -0.4218742
-0.36061734 0.47469556 0.21536763 -0.53699696 0.043546133 -0.2552167 -0.15638712 -0.19048254
0.14379174 0.49480537 -0.10505705 0.2009113 0.6092501 -0.2958651 0.36269343 -0.32705548
0.9021062 0.5340494 -0.04948492 -0.04774349 0.001095833 0.2623671 -0.12099022 -0.22268602
-0.32920128 -0.00024600065 -0.043477427 -0.62784135 0.2271071 -0.00012346132 -0.37729958 -0.07461508
0.9088671 -0.3304922 0.04953998 0.35663307 6.557607e-05 0.006588789 0.28371593 0.0017887849
-0.33491534 0.21206176 -0.00013679142 0.22699574 -0.052014202 -0.114500366 -0.41905895 -0.22285587
-0.38912585 -0.07804677 0.31366882 0.020240845 -0.28850082 0.045643654 0.19670165 -0.04389102
-0.00013235741 -0.7194149 -0.30322418 0.36169773 -0.35925612 -0.124160096 -0.3279819 0.10039902
0.32829782 -0.60315305 -0.02600695 0.25749722 -0.051864903 0.18862712 0.20592171 -0.19250374
0.028960224 -0.26613897 -0.037151568 0.24385363 0.020050298 0.21308707 -0.27654612 -0.8298132
-0.028657502 -0.30239278 -0.21173626 0.07624113 -0.016424311 0.18132474 -0.13354595 -0.2886078
0.26567617 -0.00035965868 0.10451577 -0.3847887 -0.4410527 -4.0278806e-05 -0.3595823 0.07156227
-0.24196881 0.0022791396 0.06628221 -0.29910222 0.00026483613 -0.02159786 0.62653255 -0.013722042
0.5759627 0.1533754 -9.501264e-05 -0.17805745 0.012284508 0.032857552 0.568715 -0.0764241
-0.46883786 0.35434985 -0.04698316 0.12504563 0.2131824 -0.0097391745 0.4051664 0.0013057392
-0.0001620884 0.6355124 -0.27157974 -0.4702172 0.10516412 0.5603574 -0.24687147 -0.4732725
0.26679432 -0.3513639 -0.08541534 -0.036276937 0.46868607 0.04846273 0.19094552 0.15004027
