Python/link_predict.pth (torch, 68536 bytes, 4 tensors)

conv1.bias f4 [64]
-0.05826867 -0.058694407 -0.06688722 -0.06269338 0.0 -0.042435586 -0.061198644 -0.061493993
-0.05786052 0.15045723 -0.061737332 0.027527772 -0.044905607 -0.036688257 -0.03613173 -0.022410214
-0.032592386 0.1566999 -0.060047038 0.08460814 -0.05882315 -0.051575486 -0.036463127 -0.059890885
-0.04837357 -0.06215324 -0.06314247 0.018118724 -0.036375232 0.13489847 -0.021639377 0.071259305
0.0 -0.07821974 0.12598506 0.0 0.0 -0.061342195 -0.06075037 -0.06830366
-0.07386314 -0.042579666 -0.06675635 0.07962267 -0.06465997 0.048412282 -0.069835596 0.046153877
-0.060046326 -0.04308306 -0.059199862 -0.005961212 0.041009303 -0.06003986 -0.01681972 0.012006184
-0.0600423 -0.04333905 -0.056984484 0.02639181 -0.062900476 -0.059971597 -0.05563593 -0.021958945
00000000: 21ab 6ebd 8c69 70bd 2bfc 88bd 6365 80bd
00000010: 0000 0000 f0d0 2dbd 6eab 7abd 20e1 7bbd
00000020: 27ff 6cbd 7611 1a3e 49e0 7cbd ec81 e13c
00000030: f1ee 37bd 6d46 16bd ddfe 13bd a095 b7bc
00000040: 987f 05bd f075 203e e2f3 75bd 0847 ad3d
00000050: 8bf0 70bd d140 53bd 5c5a 15bd 2550 75bd
00000060: 5d23 46bd 6594 7ebd d750 81bd b86d 943c
00000070: 32fe 14bd d322 0a3e 1045 b1bc 66f0 913d
00000080: 0000 0000 ac31 a0bd 3a02 013e 0000 0000
00000090: 0000 0000 f441 7bbd 61d5 78bd cae2 8bbd
000000a0: 8f45 97bd 0468 2ebd 8eb7 88bd 3611 a33d
000000b0: 726c 84bd f54b 463d f705 8fbd d90b 3d3d
000000c0: 23f3 75bd dd77 30bd 8e7b 72bd 4556 c3bb
000000d0: 5ff9 273d 5bec 75bd 82c9 89bc 96b5 443c
000000e0: eaee 75bd 4a84 31bd 9068 69bd a333 d83c
000000f0: f7d1 80bd c7a4 75bd 80e2 63bd 3fe3 b3bc

conv1.lin.weight f4 [64, 128]
0.120258175 0.058270678 -0.045170736 -0.09371156 0.042893194 -0.027841717 0.18221669 0.012573504
0.0532563 -0.13105947 0.11724414 -0.06486599 0.056356084 -0.22736722 0.18560325 0.096920654
0.059729796 -0.2142621 -0.07674478 0.037385758 -0.043981012 0.03616159 0.06626815 0.047825683
-0.039679337 -0.0020686726 -0.19984703 0.11448389 -0.11947908 0.10002686 0.060567487 0.10970281
0.07458392 -0.18564133 -0.22721605 -0.10917359 0.19863456 -0.035182726 -0.056779373 -0.01764578
0.086890966 -0.010442314 0.018834539 -0.11319489 -0.108160675 -0.097673014 -0.1590376 0.1965058
-0.17624235 0.10130206 0.063635685 -0.035160918 0.20191461 0.010717362 0.024361247 0.07788682
-0.04192366 -0.11371971 -0.21374342 0.18678226 -0.04036479 0.02136434 -0.04511259 0.007685045
0.17069124 -0.016895272 0.178134 -0.044469275 -0.098638676 -0.027629305 0.02179897 -0.0107577015
0.11329032 0.09937658 -0.06151646 -0.057577893 -0.17166759 -0.13187206 -0.015209487 -0.04335093
0.07798282 -0.22826909 -0.119908325 -0.013135108 -0.12651832 -0.00820381 0.08173501 -0.045498233
0.10426057 0.10130795 -0.14932796 -0.093877085 -0.1465599 0.07113132 -0.099414736 0.098084494
-0.06909409 -0.14297235 -0.116201036 0.21481968 0.07130985 -0.09728971 0.07992581 0.03867892
-0.13609917 -0.062405005 0.0023265982 -0.020753622 -0.19571202 -0.16342811 0.012177295 0.15340412
-0.15197136 0.061896596 -0.19142075 0.029904129 0.09644879 0.014554039 -0.034115568 0.10995051
-0.09282489 -0.0857649 -0.016425932 0.23719074 -0.18363759 -0.029853195 0.08580117 -0.048529785
0.04900494 0.1359754 0.008154774 0.049796104 -0.12917976 -0.030900689 0.1035807 0.07751757
-0.028080441 0.08484854 0.008114569 0.09422739 -0.23341809 -0.07489828 0.20405248 0.031154854
-0.13475876 -0.010367041 -0.02149518 -0.1016605 -0.070789985 0.08822511 0.2085812 -0.041895483
-0.06139929 0.111430466 0.031104337 0.07175556 0.0055963467 -0.14799437 0.14575133 0.10737026
0.11417253 -0.17508714 -0.17013204 0.07672099 0.20350522 -0.029721938 -0.08078382 -0.1640815
0.0898968 0.21761015 -0.21647526 -0.09180973 0.11462043 -0.18567657 0.05108321 0.20711511
0.04084794 -0.04081428 -0.02060354 -0.15944329 0.23073295 0.20014966 0.13538995 0.0024117255
-0.036552776 0.098411106 -0.25169083 0.07792465 -0.17721619 -0.12262691 -0.031829003 0.11605046
-0.09163475 0.07865147 -0.08294519 0.1292463 -0.21998803 -0.003458379 0.03459914 0.20095412
0.033679754 0.036142442 0.1097645 0.15390937 0.06864089 0.047895864 -0.067032814 -0.018985115
0.13475883 -0.16488859 -0.18190491 0.096748635 -0.055695068 -0.17123857 0.20422544 -0.033318304
0.11221489 -0.104016036 0.059099462 0.009474127 0.04349809 0.18706293 0.21347441 -0.12996963
0.18735108 -0.22335404 0.034503188 0.09102732 0.08578496 -0.15762658 0.0924249 -0.041062452
-0.08471057 0.012448956 0.22244464 -0.07686364 -0.10628214 -0.059114195 -0.08191352 -0.041406684
0.09539541 0.08818499 -0.22817884 -0.16501917 0.0095101725 0.010305142 -0.022168454 0.13865119
0.0074736797 0.21984947 -0.20953675 0.16100971 -0.089485936 0.028352788 -0.08787462 0.1085852
00000000: eb49 f63d 3cad 6e3d f304 39bd d9eb bfbd
00000010: c6b0 2f3d 5014 e4bc 0397 3a3e 1901 4e3c
00000020: 4723 5a3d 7434 06be b21d f03d 76d8 84bd
00000030: a3d5 663d f4d2 68be c70e 3e3e 567e c63d
00000040: 3ba7 743d 8667 5bbe 5e2c 9dbd cf21 193d
00000050: 6f25 34bd 2d1e 143d 99b7 873d dde4 433d
00000060: cd86 22bd 9192 07bb b3a4 4cbe 8876 ea3d
00000070: 73b1 f4bd e2da cc3d 9d15 783d deab e03d
00000080: 74bf 983d c318 3ebe 53ab 68be 6796 dfbd
00000090: dc66 4b3e c31b 10bd 7d91 68bd e28d 90bc
000000a0: e4f3 b13d 3d16 2bbc e44a 9a3c b9d2 e7bd
000000b0: 5883 ddbd ca08 c8bd c1da 22be d138 493e
000000c0: e078 34be 7477 cf3d 6d53 823d e504 10bd
000000d0: b4c2 4e3e e097 2f3c 3d91 c73c 2083 9f3d
000000e0: 25b8 2bbd e1e5 e8bd 8edf 5abe d943 3f3e
000000f0: 8d55 25bd 4504 af3c fbc7 38bd d4d2 fb3b
00000100: afc9 2e3e f467 8abc c268 363e 6a25 36bd
00000110: 1303 cabd da56 e2bc c193 b23c 1241 30bc
00000120: c104 e83d f385 cb3d aff8 7bbd ccd6 6bbd
00000130: a1c9 2fbe 7809 07be 3631 79bc bf90 31bd
00000140: 75b5 9f3d 5fbf 69be 7f92 f5bd a334 57bc
00000150: 058e 01be 4669 06bc af64 a73d 5b5c 3abd
00000160: 9186 d53d 8b7a cf3d 6ee9 18be a142 c0bd
00000170: cc13 16be 4cad 913d f499 cbbd 86e0 c83d
00000180: 3481 8dbd 5867 12be cffa edbd b1f9 5b3e
00000190: e60a 923d d43f c7bd 25b0 a33d ca6d 1e3d
000001a0: 955d 0bbe 649c 7fbd d779 183b 8003 aabc
000001b0: bb68 48be b359 27be 4783 473c f815 1d3e
000001c0: 619e 1bbe 4987 7d3d cd03 44be 81f9 f43c
000001d0: f186 c53d 1074 6e3c c4bc 0bbd bc2d e13d
000001e0: fa1a bebd 82a5 afbd ad8f 86bc 21e2 723e
000001f0: 7e0b 3cbe b08e f4bc 86b8 af3d 2bc7 46bd
00000200: 67b9 483d 233d 0b3e 9a9b 053c 00f7 4b3d
00000210: b347 04be 7123 fdbc 1e22 d43d 88c1 9e3d
00000220: f408 e6bc 12c5 ad3d f8f2 043c 4afa c03d
00000230: 2705 6fbe 4564 99bd 22f3 503e 7738 ff3c
00000240: 33fe 09be 86da 29bc a916 b0bc 6133 d0bd
00000250: 57fa 90bd 5eaf b43d 4f96 553e 999a 2bbd
00000260: d27d 7bbd a835 e43d 86ce fe3c 94f4 923d
00000270: 8f61 b73b d68b 17be d63f 153e f0e4 db3d
00000280: 4ad3 e93d 0b4a 33be 1837 2ebe e51f 9d3d
00000290: ac63 503e 6c7b f3bc fd71 a5bd fb04 28be
000002a0: d01b b83d 32d5 5e3e b1ab 5dbe bd06 bcbd
000002b0: 1ebe ea3d 0022 3ebe a13c 513d fc15 543e
000002c0: 2b50 273d e02c 27bd c1c8 a8bc 1a45 23be
000002d0: 4245 6c3e 08f4 4c3e aaa3 0a3e 0a0e 1e3b
000002e0: 5db8 15bd c38b c93d 9fdd 80be f596 9f3d
000002f0: 2978 35be d123 fbbd 215f 02bd ddab ed3d
00000300: 00ab bbbd 0614 a13d 2bdf a9bd 2459 043e
00000310: 8b44 61be f9a5 62bb d4b7 0d3d ebc6 4d3e
00000320: c8f3 093d 190a 143d 36cc e03d 6b9a 1d3e
00000330: 9893 8c3d 742e 443d 8048 89bd ac86 9bbc
00000340: 38fe 093e 8ed8 28be 4845 3abe 2624 c63d
00000350: 8320 64bd 2a59 2fbe 7920 513e c678 08bd
00000360: ecd0 e53d 5c06 d5bd 4712 723d 5e39 1b3c
00000370: 0e2b 323d 6d8d 3f3e 0999 5a3e c216 05be
00000380: f6d8 3f3e ecb6 64be 3753 0d3d 886c ba3d
00000390: 06b0 af3d dd68 21be 4449 bd3d 1a31 28bd
000003a0: bc7c adbd b5f6 4b3c 87c8 633e af6a 9dbd
000003b0: 73aa d9bd ba21 72bd 47c2 a7bd 0e9a 29bd
000003c0: ab5e c33d 559a b43d b7a7 69be c9fa 28be
000003d0: 8ed0 1b3c e6d6 283c 9e9a b5bc 94fa 0d3e
000003e0: c5e5 f43b 3820 613e cd90 56be bbdf 243e
000003f0: 6744 b7bd 1b44 e83c 9cf7 b3bd eb61 de3d

conv2.bias f4 [128]
-0.085450165 -0.0046636485 -0.06118551 -0.034533285 0.023845498 -0.021565631 -0.18170586 -0.07143326
0.049140997 0.029645 -0.020609945 -0.18162026 0.090696454 0.03428048 -0.1319323 -0.0055908444
-0.00038047993 0.17422014 -0.018934948 -0.12818517 -0.15255599 0.10647572 -0.14590582 -0.018384112
-0.009421763 0.19279438 0.061905134 -0.14575538 -0.031001793 0.05329858 -0.04978138 0.015134684
-0.03594471 0.06905699 0.063143715 -0.12610824 -0.11893202 0.07559306 0.0591464 0.07450743
0.11107473 -0.014752841 0.059356485 -0.005270851 0.07748794 0.030029824 0.020927113 0.0024138086
0.18611008 0.025622522 0.08065423 0.08976311 -0.037728496 -0.025530197 -0.04462086 -0.017268257
-0.047910776 -0.055997144 -0.00854782 -0.0075740204 0.17932358 -0.038502175 0.09496652 -0.067027785
-0.016930217 0.114679344 -0.09296619 -0.016567482 0.21162933 -0.14587486 -0.031351566 -0.059208844
0.115225025 -0.13691802 -0.024350716 -0.13897006 0.056123067 0.08475962 0.0380402 -0.07606737
-0.09977369 0.021318788 0.21158487 -0.13097313 0.09058979 0.033038367 -0.16096024 0.04356221
0.25626847 0.02887149 0.121589534 0.010342453 0.07045268 -0.06774826 -0.048829716 0.0144285625
-0.07223315 0.0461721 0.07486784 -0.017784119 -0.05928203 0.24910311 -0.09693926 -0.17076597
0.14990112 0.030776838 -0.07248163 0.031833723 0.0069135837 0.098184116 -0.117951505 -0.06067017
0.022215342 0.04803416 0.08336355 0.03782851 0.10730868 0.019167999 0.0018528204 -0.031808324
-0.118117444 -0.06579707 0.14334531 0.006363435 0.06314167 0.049008124 -0.015022659 -0.0886748
00000000: 7f00 afbd 85d1 98bb a89d 7abd c672 0dbd
00000010: a257 c33c 68aa b0bc 1a11 3abe 9a4b 92bd
00000020: 1248 493d 12da f23c 30d6 a8bc a9fa 39be
00000030: 10bf b93d b069 0c3d 4319 07be 6733 b7bb
00000040: 277b c7b9 c466 323e 771d 9bbc f942 03be
00000050: a337 1cbe f10f da3d 5668 15be 479a 96bc
00000060: bd5d 1abc e46b 453e 3d90 7d3d e640 15be
00000070: 79f7 fdbc 9d4f 5a3d 8fe7 4bbd 77f7 773c
00000080: c33a 13bd c06d 8d3d 7e51 813d 8522 01be
00000090: a292 f3bd 89d0 9a3d 7f43 723d 5a97 983d
000000a0: 267b e33d e6b5 71bc c91f 733d 1ab7 acbb
000000b0: ffb1 9e3d 1b01 f63c 566f ab3c fd30 1e3b
000000c0: a493 3e3e 53e6 d13c 0c2e a53d b9d5 b73d
000000d0: 3289 1abd b424 d1bc 5dc4 36bd 2976 8dbc
000000e0: 173e 44bd 435d 65bd 280c 0cbc 7d2f f8bb
000000f0: 9aa0 373e 75b4 1dbd cf7d c23d dd45 89bd
00000100: 3db1 8abc 01dd ea3d 0f65 bebd 87b8 87bc
00000110: 5cb5 583e 3860 15be 806a 00bd f984 72bd
00000120: 19fb eb3d 3d34 0cbe 277b c7bc 2b4e 0ebe
00000130: 4de1 653d 7496 ad3d 0ad0 1b3d 36c9 9bbd
00000140: 2656 ccbd bda4 ae3c b4a9 583e d21d 06be
00000150: 2487 b93d 3d53 073d c3d2 24be 4a6e 323d
00000160: 9f35 833e e783 ec3c ef03 f93d 6473 293c
00000170: 7f49 903d 9abf 8abd ab01 48bd c765 6c3c
00000180: f9ee 93bd f51e 3d3d 4f54 993d 00b0 91bc
00000190: b7d1 72bd e314 7f3e 1788 c6bd 46dd 2ebe
000001a0: ae7f 193e b51f fc3c 4071 94bd 1464 023d
000001b0: 588b e23b c114 c93d 8f90 f1bd 4981 78bd
000001c0: f3fc b53c 78bf 443d 82ba aa3d 11f2 1a3d
000001d0: a7c4 db3d 3506 9d3c 56da f23a 7249 02bd
000001e0: 8fe7 f1bd 9dc0 86bd 1dc9 123e 5d84 d03b
000001f0: 6b50 813d bebc 483d 9921 76bc 229b b5bd

conv2.lin.weight f4 [128, 64]
-0.11630704 -0.047789402 -0.24098408 0.06065876 0.14622201 -0.081236355 0.016656358 0.11394014
-0.21910185 0.013763812 -0.064885885 -0.06754672 -0.16431823 -0.084384374 0.09234443 -0.07797048
-0.19465683 -0.023407292 -0.038002554 -0.01101944 -0.056660123 0.07387941 -0.15555546 -0.13913396
-0.07752086 0.012126512 0.033585515 0.017822515 0.03988408 -0.072684705 0.019198073 0.07659863
-0.015642151 -0.054953586 0.10796458 0.111802325 -0.12778318 -0.09723884 -0.2145257 -0.22943486
0.030705422 0.02350298 -0.23836416 0.09136369 -0.2500031 -0.102075845 0.018621776 -0.017591724
-0.22248535 0.067474 -0.17658316 -0.006756488 -0.04450375 -0.13311082 -0.16323449 0.0120653445
-0.19171713 0.0460283 -0.16157873 -0.12479864 -0.04495234 0.008441595 -0.123463176 0.10583984
-0.020384556 -0.10318969 0.06805595 0.0872377 0.032894716 -0.058064736 0.08720877 -0.10410456
0.18390302 0.033031903 0.15982763 -0.11750847 0.14479145 0.010483358 0.07178506 -0.035781097
-0.08015047 0.0806389 0.10641211 -0.0837001 -0.09026276 -0.0238928 0.042527404 0.022905445
0.0059114527 0.016819831 0.12066275 -0.008299234 -0.010814025 0.021444183 0.1879702 0.1501894
0.12792788 -0.012938836 -0.06447018 0.0030973107 0.14990737 -0.0357993 -0.0027424402 0.10215701
-0.009517028 -0.031735472 0.10717445 -0.04882278 -0.07447665 0.02152233 0.15506409 -0.03781958
-0.00389058 -0.06946038 0.043291524 -0.21749139 0.10839435 0.13799763 0.044363584 0.11038356
0.043270487 0.21524712 -0.07615266 -0.078246176 -0.10036541 0.14543097 -0.040989343 -0.0075822845
0.03924941 0.026983688 -0.049327314 -0.16881879 -0.042424917 -0.18203768 -0.096912235 -0.14472865
-0.14548834 -0.08384019 0.009095079 -0.12792692 -0.044379942 -0.124178484 0.009278226 -0.11722874
-0.14968278 0.17193332 0.014452656 -0.12787257 0.08082545 -0.054715596 0.031363845 0.029361615
-0.02150882 0.008986916 -0.14276622 -0.17466919 0.094366714 -0.19020449 -0.26559594 0.033387605
0.033232704 -0.16597909 -0.05896299 -0.012709439 -0.05021864 0.017439695 -0.09733445 -0.08081487
0.06921558 0.09650304 0.06205149 -0.015381159 -0.19513862 -0.18802345 -0.16974254 -0.19305293
-0.22066082 -0.238807 -0.14593212 -0.10215157 -0.0002200907 -0.05556133 0.16459186 -0.13607742
-0.09519253 0.077873036 0.0031978255 0.06205972 -0.0002541025 -0.0076321815 -0.0750056 -0.094522506
0.054180756 0.041371208 -0.13503306 -0.14074342 0.11135514 0.01940929 0.019100953 -0.07006667
-0.017069396 -0.23716739 -0.07257296 0.19047797 -0.10018391 -0.08759628 -0.109694935 -0.04699813
-0.2100585 0.17225718 -0.047488447 0.08864542 -0.11036773 -0.14834934 -0.18841442 -0.13489309
-0.046869807 -0.12173393 -0.06292453 0.025329696 0.04743865 0.1191335 0.05159979 -0.03985427
-0.004964456 0.09559263 -0.1349096 0.09369297 0.11131729 0.080437995 -0.058232203 0.07417086
-0.17169614 0.06320456 -0.07752796 -0.05035999 0.09145968 -0.0003983248 -0.00074458047 -0.13524494
0.0954755 0.0039654286 0.10127191 0.058154177 -0.0137542 0.067963615 -0.06582471 0.10514712
0.09800341 -0.001167611 -0.08015218 -0.0060552293 0.013631487 0.020649645 -0.11706793 -0.08948848
00000000: 6332 eebd d2be 43bd 88c4 76be 5275 783d
00000010: 39bb 153e 3f5f a6bd ea72 883c 7359 e93d
00000020: 3c5c 60be 9d81 613c e4e2 84bd ef55 8abd
00000030: 0a43 28be b7d1 acbd 141f bd3d fdae 9fbd
00000040: 1f54 47be a6c0 bfbc 91a8 1bbd e28a 34bc
00000050: 7214 68bd 174e 973d ee49 1fbe 2279 0ebe
00000060: 42c3 9ebd 47ae 463c f790 093d 8600 923c
00000070: 7d5d 233d b8db 94bd 4745 9d3c bedf 9c3d
00000080: f823 80bc 0317 61bd 891c dd3d 9ef8 e43d
00000090: 98d9 02be 2825 c7bd a0ac 5bbe f9f0 6abe
000000a0: f089 fb3c 5289 c03c bc15 74be e31c bb3d
000000b0: 6800 80be 240d d1bd b28c 983c 851c 90bc
000000c0: 33d3 63be cf2f 8a3d 37d2 34be 8765 ddbb
000000d0: 9049 36bd 344e 08be f126 27be b9ad 453c
000000e0: 7f51 44be 2c88 3c3d e574 25be 6e96 ffbd
000000f0: f21f 38bd 9e4e 0a3c 43da fcbd 8fc2 d83d
00000100: 83fd a6bc 1e55 d3bd eb60 8b3d aea9 b23d
00000110: 9cbc 063d 4ad5 6dbd 839a b23d c634 d5bd
00000120: 1351 3c3e 764c 073d dba9 233e 48a8 f0bd
00000130: 3644 143e 64c2 2b3c 0c04 933d 338f 12bd
00000140: ee25 a4bd 0226 a53d 98ee d93d f56a abbd
00000150: afdb b8bd d5ba c3bc 3731 2e3d 33a4 bb3c
00000160: dcb4 c13b bec9 893c 081e f73d 83f9 07bc
00000170: 4f2d 31bc b6ab af3c 437b 403e 40cb 193e
00000180: 87ff 023e 69fd 53bc f108 84bd 40fc 4a3b
00000190: 5181 193e 49a2 12bd 83ba 33bb b237 d13d
000001a0: 4fed 1bbc 0efd 01bd 477e db3d 65fa 47bd
000001b0: 3787 98bd 994f b03c 1fc9 1e3e b4e8 1abd
000001c0: 1af9 7ebb 3e41 8ebd 7452 313d 10b6 5ebe
000001d0: dbfd dd3d 404f 0d3e 97b6 353d c710 e23d
000001e0: 653c 313d be69 5c3e edf5 9bbd 883f a0bd
000001f0: 618c cdbd dbeb 143e 71e4 27bd d074 f8bb
00000200: fdc3 203d e50c dd3c 700b 4abd d5de 2cbe
00000210: c0c5 2dbd 1668 3abe ec79 c6bd bf33 14be
00000220: e5fa 14be 68b4 abbd 8703 153c 46ff 02be
00000230: bec7 35bd 4a51 febd b303 183c 9f15 f0bd
00000240: 7146 19be 4a0f 303e d5ca 6c3c 07f1 02be
00000250: d087 a53d 761d 60bd 6077 003d c587 f03c
00000260: 4433 b0bc dc3d 133c 4f31 12be 7bdc 32be
00000270: 5643 c13d f7c4 42be 31fc 87be 71c1 083d
00000280: 041f 083d 6cf6 29be 2d83 71bd 403b 50bc
00000290: 10b2 4dbd b1dd 8e3c 4957 c7bd 4482 a5bd
000002a0: e6c0 8d3d 63a3 c53d b429 7e3d 4201 7cbc
000002b0: 6bd2 47be 3889 40be fdd0 2dbe abaf 45be
000002c0: e9f4 61be d289 74be 3b6f 15be d834 d1bd
000002d0: 26c8 66b9 4794 63bd c58a 283e e157 0bbe
000002e0: 4df4 c2bd e67b 9f3d 9c92 513b 5532 7e3d
000002f0: 0f39 85b9 6117 fabb 899c 99bd 0495 c1bd
00000300: a4ec 5d3d db74 293d 1b46 0abe 0b1f 10be
00000310: 2a0e e43d 3b00 9f3c 9a79 9c3c 1d7f 8fbd
00000320: 1ed5 8bbc 02dc 72be 22a1 94bd a80c 433e
00000330: 392d cdbd ae65 b3bd bda7 e0bd 1c81 40bd
00000340: 9319 57be 3064 303e 3f83 42bd bb8b b53d
00000350: 7a08 e2bd e4e8 17be b6ef 40be 6a21 0abe
00000360: 8efa 3fbd a44f f9bd 93de 80bd 3980 cf3c
00000370: 084f 423d 44fc f33d 4d5a 533d 3b3e 23bd
00000380: e0ac a2bb 12c6 c33d be25 0abe 1ae2 bf3d
00000390: 52fa e33d adbc a43d e484 6ebd e4e6 973d
000003a0: 1dd1 2fbe 6471 813d fbc6 9ebd 4746 4ebd
000003b0: 364f bb3d 40d6 d0b9 f32f 43ba a67d 0abe
000003c0: a988 c33d 6df0 813b a667 cf3d 1333 6e3d
000003d0: 4c59 61bc 8230 8b3d 1bcf 86bd 6057 d73d
000003e0: 03b6 c83d 860a 99ba d326 a4bd f26a c6bb
000003f0: 9a56 5f3c 7229 a93c 50c1 efbd bc45 b7bd
